DLPS/HW2/learnt.pt (torch, 34858 bytes, 9 tensors)

layers.0.weight f4 [50, 1]
0	0xbf5f3b6f	-0.87200063
1	0x3dc2e860	0.09516978
2	0xbe9999ac	-0.30000055
3	0xbf7a9031	-0.9787627
4	0x3f49b39a	0.78789675
5	0x3f048b27	0.5177483
6	0xbf5437fd	-0.8289793
7	0x3f35bb7c	0.70989203
8	0xbf70150e	-0.93782127
9	0xbf492b9f	-0.78582186
10	0xbf5b1648	-0.85580873
11	0xbf0e950c	-0.5569618
12	0x3f15fdca	0.58590376
13	0x3f2a5fb1	0.66552263
14	0x3eb51214	0.35365355
15	0x3dbda870	0.092606425
16	0x3f1d0224	0.6133139
17	0xbe961fcf	-0.29321143
18	0xbf141d63	-0.5785734
19	0x3f09bb8f	0.53801817
20	0xbe8cc4bd	-0.2749385
21	0xbf7fc95d	-0.9991663
22	0xbee6b2c3	-0.4505826
23	0xbf48bc0e	-0.7841195
24	0xbf83f074	-1.0307755
25	0xbf81d24b	-1.0142301
26	0x3d80d3e0	0.06290412
27	0x3f776af5	0.9664758
28	0xbf74fa24	-0.95694184
29	0x3ec8e070	0.39233732
30	0x3f0aac0a	0.5416876
31	0xbf515826	-0.8177513
32	0xbebf8990	-0.3740964
33	0x3f51250a	0.8169714
34	0x3f316ca7	0.69306415
35	0xbf83196b	-1.0242132
36	0xbedb8a3c	-0.42878902
37	0xbc87b580	-0.016566038
38	0x3e12e4e8	0.14345133
39	0x3ceafeb7	0.02868591
40	0x3f3deb7f	0.74187464
41	0x3f2ed06f	0.68286794
42	0xbe486100	-0.19568253
43	0xbea02f47	-0.3128607
44	0x3f892f0d	1.0717484
45	0xbe6fac12	-0.23405483
46	0x3eee81e8	0.46583486
47	0xbf4fc0bf	-0.8115348
48	0x3ecbbac0	0.39790916
49	0xbf787429	-0.97052246

layers.0.bias f4 [50]
0	0x3f372209	0.7153631
1	0xbecbb904	-0.39789593
2	0xbf2a54a0	-0.6653538
3	0xbebbc3ba	-0.36672765
4	0x3ef421c9	0.47682026
5	0x3dd50d2f	0.10402905
6	0xbed679c4	-0.41889775
7	0xbf176911	-0.59144694
8	0xbeb97d52	-0.36228424
9	0xbee8fded	-0.4550623
10	0x3ed606ef	0.41802165
11	0xbe80dd3f	-0.25168797
12	0x3f563716	0.83677804
13	0x3e975bd3	0.29562244
14	0xbf288792	-0.65831864
15	0x3f7772e3	0.9665968
16	0xbf6faa38	-0.9361911
17	0x3f73d9cd	0.9525421
18	0xbd783047	-0.060592916
19	0x3d1a801b	0.037719827
20	0x3e962066	0.29321593
21	0xbf4d5e0e	-0.8022164
22	0xbe50b47d	-0.20381351
23	0xbf68a310	-0.90873814
24	0xbddc78aa	-0.10765202
25	0x3e6fe7b3	0.2342823
26	0xbec268e8	-0.37970662
27	0x3f0dcdc1	0.5539208
28	0x3e2a03af	0.16602968
29	0xbed52db0	-0.4163642
30	0xbf3c106c	-0.7346256
31	0x3f51598e	0.81777275
32	0xbf7e1080	-0.99243927
33	0x3f512ff9	0.81713825
34	0xbe897897	-0.26849815
35	0xbe324517	-0.17409168
36	0xbefe5e3c	-0.4968127
37	0xbf61b99c	-0.8817384
38	0xbe9689b8	-0.29401946
39	0x3f60965f	0.8772945
40	0xbea73710	-0.32659197
41	0xbe1835b0	-0.1486423
42	0xbe7ae938	-0.24503028
43	0x3ef33714	0.4750296
44	0xbebe34f8	-0.37149787
45	0x3f7af6c1	0.98032767
46	0xbf4daa86	-0.80338323
47	0xbe246aa6	-0.16056308
48	0x3f6ff9d7	0.937406
49	0xbeffdeef	-0.49974772

layers.1.weight f4 [50, 50]
0	0xbdf18024	-0.11792019
1	0xbdd60c2e	-0.10451542
2	0xbd6e53a2	-0.058185227
3	0x3dd61ca6	0.10454683
4	0xbe06a100	-0.13147354
5	0xbe012f7d	-0.12615772
6	0xbcdc6c14	-0.026907004
7	0xbdd3d22d	-0.10342822
8	0x3d9ef252	0.07761063
9	0x3c03da70	0.008047685
10	0xbd765915	-0.06014355
11	0xbe041092	-0.12896946
12	0xbbe3fdbb	-0.0069577373
13	0x3dfa6628	0.12226516
14	0x3c30bfa0	0.010787874
15	0x3ba96b47	0.005170259
16	0x3d25028c	0.040285632
17	0xbdbd8cb3	-0.09255352
18	0xbd8ff9bb	-0.07030054
19	0x3cffd212	0.031228099
20	0xbcf0d28e	-0.029397275
21	0x3d9586ac	0.07301077
22	0x3cb268c0	0.021778464
23	0xbdcc390e	-0.0997182
24	0xbc9b34cc	-0.018946074
25	0xbde235bf	-0.110454075
26	0xbdd82d7a	-0.10555549
27	0xbdedb7d8	-0.11607331
28	0x3d84b3a9	0.0647958
29	0xbdcc2f68	-0.099699795
30	0x3d138d18	0.03602323
31	0xbd74b8e2	-0.05974663
32	0xbdf2d729	-0.11857445
33	0x3dcbddac	0.0995439
34	0xbdf54bfb	-0.11977383
35	0xbdc4dd0f	-0.09612476
36	0xbdb15c00	-0.08660126
37	0x3d7da6b8	0.061926574
38	0xbdd4a730	-0.10383451
39	0x3cc76db9	0.024344312
40	0xbde64f35	-0.11245576
41	0x3d5152dc	0.05110441
42	0xbd43e9b6	-0.047830306
43	0xbc9514c7	-0.018198384
44	0xbe1a4cb4	-0.15068322
45	0xbcd69e4c	-0.026198529
46	0xbd41a16c	-0.047273085
47	0xbdfc68ab	-0.12324651
48	0x3e000c33	0.12504654
49	0xbd5784c0	-0.052616835
50	0xbc43218e	-0.0119098555
51	0x3d65aec0	0.056074858
52	0x3e07b37d	0.13252063
53	0x3d16b6fb	0.036795598
54	0x3c5c4057	0.013443074
55	0xbd1b8cb9	-0.037976
56	0xbc6b69ed	-0.014368516
57	0xbd9f2035	-0.07769815
58	0xbe2abb0a	-0.16672912
59	0xbe3ed4a5	-0.18635805
60	0x3e0e627e	0.1390476
61	0xbe268c4c	-0.16264457
62	0x3d1a20e5	0.037629027
63	0xbe0f0ac7	-0.13968955
64	0xbe08180e	-0.13290426
65	0xbc297958	-0.010343872
66	0xbdb62272	-0.08893289
67	0x3e17ecab	0.14836375
68	0xbda80b90	-0.0820533
69	0xbe27e1ae	-0.16394684
70	0x3e0537b3	0.13009529
71	0x3c346f6f	0.011012896
72	0xbde92fc8	-0.11386067
73	0xbbfd0820	-0.007721916
74	0xbd846ef4	-0.06466475
75	0xbc1fb0dc	-0.009746756
76	0xbd56b75a	-0.05242095
77	0x3da51922	0.08061434
78	0xbdb77dca	-0.08959539
79	0xbdcebf48	-0.10095078
80	0x3dfd2d46	0.12362151
81	0x3daf87f4	0.08570853
82	0xbd565fa8	-0.05233732
83	0xbc84c6dc	-0.016208105
84	0x3da46382	0.08026792
85	0xbdd2d026	-0.102936074
86	0xbd97edad	-0.0741838
87	0x3d8eba68	0.06969148
88	0xbcfaa28c	-0.030595087
89	0x3e053ef5	0.13012297
90	0xbdaafd2b	-0.08349069
91	0xbdd77b73	-0.10521593
92	0xbe0415ce	-0.12898943
93	0x3caad015	0.020851174
94	0xbd15e154	-0.036591843
95	0x3d7e48d5	0.062081177
96	0x3d2fa4f0	0.042881906
97	0xbd077b54	-0.0330766
98	0xbc6d29c5	-0.014475291
99	0xbd2e85b1	-0.042607967
100	0x3d925e02	0.07146837
101	0xbd8a7f8e	-0.067626104
102	0x3d2af528	0.041737705
103	0x3d794a00	0.060861588
104	0xbdfc0d4a	-0.12307222
105	0x3dcb273b	0.09919592
106	0x3d694160	0.056947112
107	0x3d508540	0.050908327
108	0x3e139958	0.14413965
109	0xbd83fce2	-0.06444718
110	0x3a6c95f6	0.00090250315
111	0xbc258217	-0.010101817
112	0xbdc1ed0f	-0.094690435
113	0x3ce7fc81	0.028318645
114	0xbc8c1448	-0.017099515
115	0x3d2b7743	0.041861784
116	0x3caf0d10	0.021368533
117	0xbdba0265	-0.09082488
118	0xbdb0b2b7	-0.08627837
119	0xbd4d636e	-0.05014365
120	0xbda77941	-0.08177424
121	0x3e5c842b	0.21534793
122	0x3dfb1b09	0.12261016
123	0x3da59aa8	0.08086139
124	0xbdb8cb49	-0.090231486
125	0xbd719118	-0.058976263
126	0xbe0c6e9c	-0.13714069
127	0xbe24c1fb	-0.16089623
128	0x3e03c7df	0.12869214
129	0xbd7706fc	-0.060309395
130	0xbdf6b266	-0.120457456
131	0x3dc06f79	0.09396262
132	0x3dfec3be	0.124396786
133	0xbe278860	-0.16360617
134	0xbc1120c1	-0.008857907
135	0xbd9c9205	-0.076450385
136	0x3e07dc55	0.13267644
137	0x3d82ab94	0.06380382
138	0x3dd3a3a6	0.10333948
139	0x3d756fc8	0.059921056
140	0xbca95c60	-0.02067393
141	0x3d08c338	0.0333893
142	0x3c27bb00	0.010237455
143	0x3dc87d5c	0.097895354
144	0xbe02b5a7	-0.12764607
145	0x3c8311d2	0.015999708
146	0x3cfc9d68	0.030836776
147	0x3c0a27cb	0.008432339
148	0xbd2655d0	-0.04060918
149	0xbd9a3c8a	-0.07531078
150	0x3c23c332	0.009995269
151	0x3d6a7b34	0.057246402
152	0x3ddd0a3c	0.10792968
153	0x3dd876c5	0.105695285
154	0xbe10fc6c	-0.14158791
155	0xbd523fdc	-0.051330432
156	0x3dac14d1	0.08402408
157	0x3d094e68	0.03352204
158	0xbd58ab49	-0.052897725
159	0x3df3ae59	0.118984886
160	0x3da8b6ef	0.08238017
161	0x3e197ae9	0.14988293
162	0x3d2f5f1d	0.042815316
163	0x3d01fbc0	0.031734228
164	0x3de3bcd2	0.11119999
165	0x3d0c8a20	0.034311414
166	0x3d3b9f6c	0.045806333
167	0x3c5b39a2	0.01338044
168	0x3d67f0e5	0.05662622
169	0x3b9d8ec9	0.004808281
170	0xbd8b49ba	-0.068011716
171	0x3e15648d	0.14589138
172	0x3e0f5501	0.1399727
173	0x3dd794c4	0.10526422
174	0x3dd25d0e	0.10271655
175	0xbc42198c	-0.011846911
176	0x3c7308b0	0.014833614
177	0xbe0a9a3f	-0.13535403
178	0x3dd2131c	0.10257551
179	0xbca8c7e0	-0.02060312
180	0xb9d30400	-0.00040248036
181	0x3d20b783	0.03923751
182	0xbd1cc1f0	-0.03827089
183	0xbe2b9849	-0.16757311
184	0x3c1ef8de	0.009702889
185	0x3e1dc54f	0.15407299
186	0xbd47065a	-0.04859004
187	0xbcc61c6c	-0.024183474
188	0x3c39fd60	0.011351913
189	0xbd6b12e9	-0.05739108
190	0x3d1205cc	0.03565006
191	0x3e0de997	0.13858639
192	0xbb12ae80	-0.0022381842
193	0x3d5823d1	0.052768532
194	0xbdc9c710	-0.09852421
195	0x3d56fdf2	0.052488275
196	0xbce8b194	-0.028404988
197	0xba6e948c	-0.00091011147
198	0x3dd48d6b	0.10378536
199	0x3cfebb99	0.031095313
200	0x3e376581	0.17909814
201	0x3ca889b0	0.020573467
202	0xbc9c3abc	-0.019070975
203	0x3dd88d62	0.10573842
204	0x3c488991	0.01223983
205	0xbe301e5c	-0.17199081
206	0xbcf833a6	-0.030298065
207	0xbdda5716	-0.106611416
208	0x3a381e5a	0.00070235657
209	0x3d47b595	0.048757154
210	0x3e25ed67	0.16203843
211	0x3d0667e5	0.032813925
212	0xbcb4ae6a	-0.022055823
213	0xbcd3bc0c	-0.025846504
214	0xbb9a4fc0	-0.004709214
215	0xbdffc99a	-0.12489624
216	0xbc610390	-0.0137337595
217	0xbdbfc34c	-0.09363422
218	0xbbe64802	-0.007027627
219	0x3cc889d8	0.024479792
220	0x3e24e859	0.16104259
221	0x3d38f002	0.045150764
222	0x3c4df523	0.012570652
223	0xbd19c166	-0.037537955
224	0x3d40130b	0.04689316
225	0xbba0160d	-0.004885441
226	0xbdf5fc73	-0.120110415
227	0xbe2b94c9	-0.16755976
228	0x3e0b4d6c	0.13603753
229	0xbdd1f6ac	-0.10252127
230	0x3d2bc998	0.0419403
231	0x3e00e8a6	0.12588748
232	0xbe00747e	-0.12544438
233	0xbe2f640a	-0.17128006
234	0xbd968a6b	-0.0735062
235	0x3d539bfa	0.051662423
236	0x3d415aa0	0.047205567
237	0xbdb87284	-0.09006217
238	0x3c5e2460	0.013558477
239	0xbd87cb2a	-0.06630547
240	0x3b936360	0.0044979304
241	0x3bc98be0	0.0061507076
242	0x3db649c2	0.08900787
243	0x3db8f0d0	0.09030306
244	0xbd457520	-0.048207402
245	0xbd25d8ea	-0.04049007
246	0x3dec93ba	0.11551614
247	0x3df26271	0.118351825
248	0xbd9deb33	-0.07710876
249	0xbcac4d62	-0.021032993
250	0xbe3ca98b	-0.1842405
251	0x3c8bec60	0.017080486
252	0x3de7875e	0.11305116
253	0xbbc89d91	-0.006122299
254	0xbb166dd8	-0.0022953656
255	0xbd5b9805	-0.053611774

layers.1.bias f4 [50]
0	0xbc5be23a	-0.013420636
1	0x3d6efafc	0.058344826
2	0x3dc8a27c	0.097966164
3	0x3dd0955f	0.1018474
4	0x3e044003	0.12915044
5	0xbd136c97	-0.03599223
6	0xbd5e2682	-0.054235943
7	0xbc2ff6ca	-0.010739991
8	0xbdc36058	-0.095398605
9	0x3bda8e61	0.006669805
10	0xbdbb9be4	-0.09160593
11	0xbd9aa6ab	-0.07551321
12	0xbe0dfcb4	-0.1386593
13	0xbd3073a7	-0.043079045
14	0x3d7118f8	0.058861703
15	0xbddad876	-0.10685818
16	0xbe126657	-0.14296852
17	0x3c494fe7	0.012287117
18	0x3d62a83c	0.055336222
19	0xbce8a013	-0.028396642
20	0xbdfe6154	-0.124209076
21	0x3cf4b534	0.02987156
22	0xbd1275cf	-0.035756882
23	0x3d65ec19	0.056133363
24	0xbdfa0fa7	-0.12210017
25	0xbae03a14	-0.0017107152
26	0x3c0ad5ab	0.008473794
27	0x3a202d00	0.0006110221
28	0x3dcdc00a	0.10046394
29	0x3c7036a1	0.014661462
30	0xbe02b698	-0.12764966
31	0xbda05a2e	-0.078297004
32	0x3d344c80	0.04401827
33	0x3dce8756	0.10084407
34	0xbdafc13a	-0.08581777
35	0xbdf85914	-0.12126365
36	0xbd260aab	-0.040537518
37	0xbe02c3cc	-0.12770003
38	0xbc9e5b83	-0.019330746
39	0xbd4321c7	-0.047639634
40	0xbc8efbb7	-0.017454011
41	0x3dddbe66	0.10827331
42	0xbca64f1c	-0.020301394
43	0xbdfc2c2e	-0.12313114
44	0xbd3bfffd	-0.045898426
45	0x3e2fdf33	0.17174987
46	0xbd62a1b0	-0.05532998
47	0x3e07c495	0.13258584
48	0xbd95decb	-0.07317885
49	0xbde29e08	-0.11065298

layers.2.weight f4 [50, 50]
0	0xbda6c92e	-0.08143841
1	0x3d19b7a5	0.037528653
2	0x3d04fd92	0.032468386
3	0x3e2cc022	0.16870168
4	0xbd34cf94	-0.044143274
5	0xbe3991c8	-0.18122017
6	0xbe0dc749	-0.13845553
7	0x3e338178	0.17529857
8	0xbd964d6e	-0.07338987
9	0x3d495c92	0.049160548
10	0xbd04fd88	-0.03246835
11	0xbe297212	-0.1654742
12	0xbccca931	-0.02498302
13	0x3d023c4d	0.03179579
14	0x3dd0ed56	0.10201518
15	0xbc959dcf	-0.018263726
16	0x3e05dc47	0.1307231
17	0xbcbb8dbf	-0.022894738
18	0x3c5b2500	0.013375521
19	0x3dd6fc26	0.10497312
20	0xbddcabf5	-0.10774986
21	0xbdc683a7	-0.096930794
22	0x3aaa37d6	0.0012986611
23	0x3ce918c7	0.028454198
24	0x3c3c9140	0.01150924
25	0xbe0bd8e1	-0.13656951
26	0x3dda45d8	0.10657853
27	0x3da30948	0.07960755
28	0x3d47fe6c	0.04882662
29	0xbc1e6deb	-0.009669761
30	0x3e0cff57	0.1376928
31	0x3d2a51a2	0.041581757
32	0xbdf98703	-0.121839546
33	0xbdb3707e	-0.087616906
34	0xbd22bb40	-0.039729357
35	0x3dc1698b	0.09443959
36	0xbde82472	-0.113350764
37	0x3d2084b2	0.039189048
38	0x3ddb6371	0.10712326
39	0x3d283520	0.04106629
40	0x3db78bee	0.08962236
41	0xbe19d626	-0.15023097
42	0xbb63d940	-0.0034766942
43	0x3d730f68	0.059340864
44	0x3dab60f5	0.083681025
45	0x3d875ffa	0.06610103
46	0x3da0395e	0.07823442
47	0xbe24e5c6	-0.16103277
48	0x3dd45990	0.10368645
49	0xbd6feb68	-0.05857411
50	0x3d140734	0.036139682
51	0x3cc63477	0.024194939
52	0xbd76631a	-0.060153104
53	0x3d351f12	0.044219084
54	0x3da47108	0.080293715
55	0xbde2e4cb	-0.11078795
56	0xbe0bef02	-0.13665393
57	0x3d62a829	0.05533615
58	0xbe0cf4e9	-0.13765301
59	0x3d59c51f	0.053166505
60	0xbdec6c46	-0.11544089
61	0xbda7ea65	-0.08199004
62	0xbc9acf42	-0.018897656
63	0xbddadee3	-0.106870435
64	0xbdee33e7	-0.11630993
65	0x3aeff23e	0.0018306447
66	0xbd7f5bfa	-0.062343575
67	0xbdf063f1	-0.11737812
68	0xbdf039a3	-0.11729743
69	0xbe0b76c3	-0.13619523
70	0xbd6a16ee	-0.057150774
71	0xbdaedcf4	-0.08538237
72	0x3d4f79f6	0.05065342
73	0x3db7837c	0.089606255
74	0xbdf7028c	-0.12061033
75	0xbd6ad8c6	-0.057335638
76	0xbe149b01	-0.14512254
77	0xbdfe39c6	-0.12413363
78	0x3bc13500	0.0058962107
79	0xbdf5673e	-0.119825825
80	0xbd51fea1	-0.051268224
81	0xbbe539aa	-0.0069953995
82	0xbc958454	-0.018251576
83	0x3d902850	0.07038939
84	0xbd0095a4	-0.03139271
85	0xbd73e34e	-0.059542947
86	0xbcf25ee0	-0.029586256
87	0x3de8b0b6	0.1136183
88	0xbdda5558	-0.10660809
89	0xbdaf017c	-0.08545205
90	0xbe198e1f	-0.14995621
91	0xbddc3ec1	-0.10754157
92	0x3c620b20	0.013796598
93	0xbdae5e03	-0.08514025
94	0x3dd81ea3	0.105527185
95	0x3d350fb7	0.04420444
96	0xbc88007c	-0.016601793
97	0xbda573b3	-0.080787085
98	0xbdb4e2fa	-0.08832355
99	0x3d9db168	0.07699853
100	0x3db39d27	0.08770209
101	0xbd8d6be5	-0.06905345
102	0xbd758e82	-0.05995036
103	0x3cc48ccb	0.023992917
104	0xbbfb73eb	-0.0076737306
105	0x3dc688e3	0.09694078
106	0xbdb637fb	-0.08897396
107	0x3e122a4c	0.14273947
108	0x3d46b25c	0.04850994
109	0x3df56476	0.11982052
110	0x3e1ccc81	0.15312387
111	0xbdeb21a2	-0.11481024
112	0xbdd63af5	-0.10460464
113	0x3d981d99	0.0742752
114	0x3e055891	0.13022067
115	0x3d96a6ee	0.07356058
116	0x3b782b14	0.0037867473
117	0x3de36a51	0.111042626
118	0xbb6a1c00	-0.0035722256
119	0x3e027632	0.127404
120	0xbe139312	-0.14411572
121	0xbd04f69a	-0.03246174
122	0x3d2af363	0.041736018
123	0xb85ba4c9	-5.2367137e-05
124	0x3d9c671a	0.076368526
125	0x3de064bb	0.10956713
126	0xbc144556	-0.009049734
127	0x3d23276c	0.039832518
128	0xbdc085f4	-0.094005495
129	0x3d6ae3c5	0.057346124
130	0xbdaa0e84	-0.0830355
131	0xbc5e5c66	-0.013571834
132	0x3dbe3b78	0.092886865
133	0x3d220c23	0.039562356
134	0x3dc59f62	0.096495405
135	0x3d4651c0	0.048417807
136	0x3df39145	0.11892942
137	0x3dcc978d	0.099898435
138	0xbdbdafff	-0.09262084
139	0xbd51456d	-0.0510916
140	0xbd801a3c	-0.06255004
141	0x3e066f38	0.13128364
142	0xbe02fd3e	-0.12791917
143	0xbdf4cacd	-0.11952744
144	0x3d8e0ece	0.069364175
145	0xbd8e5261	-0.06949306
146	0x3dce8cf8	0.100854814
147	0x3e0cf088	0.1376363
148	0x3d7c496c	0.061593458
149	0xbd5784f2	-0.05261702
150	0x3d161c2c	0.03664796
151	0x3dbd3447	0.09238487
152	0x3d9aa650	0.07551253
153	0x3d56f837	0.05248281
154	0xbd74fd0e	-0.059811644
155	0xbcc3a706	-0.023883354
156	0xba6f71cc	-0.00091340835
157	0x3ddf2107	0.10894971
158	0xbdb01efc	-0.0859966
159	0x3dbccf1b	0.0921919
160	0x3d8ca129	0.06866676
161	0xbd671a91	-0.05642182
162	0xbd9de864	-0.077103406
163	0xb98a2cc6	-0.0002635477
164	0xbd1431ba	-0.036180235
165	0x3d346b59	0.044047687
166	0x3ddb78f3	0.107164286
167	0xbd4f3484	-0.050587192
168	0x3d646a14	0.055765226
169	0xbdd06a39	-0.1017651
170	0x3db0cda2	0.08632971
171	0x3df35333	0.11881103
172	0xbe0b431b	-0.13599817
173	0xbd3949bb	-0.04523633
174	0xbcdd35d0	-0.027003199
175	0x3966b186	0.00022000642
176	0x3e303977	0.17209421
177	0x3b8c84a0	0.004288271
178	0x3cadba41	0.021206977
179	0x3d9ef66a	0.077618435
180	0x3dbbfdea	0.0917929
181	0x3ce76752	0.02824751
182	0x3ca2bfb8	0.01986681
183	0xbd4fbc74	-0.050716832
184	0xbd1f7218	-0.038927168
185	0x3da6dd1e	0.081476435
186	0xbce9da2d	-0.028546417
187	0x3c524b70	0.0128353685
188	0xbd3723d7	-0.044711914
189	0x3bfa6c29	0.007642288
190	0x3d481fcf	0.04885846
191	0x3db6b2f9	0.08920855
192	0x3cc434c8	0.02395095
193	0x3b3f20c0	0.0029163808
194	0xbe0da17b	-0.13831131
195	0x3dcd77ad	0.10032592
196	0x3da31e9a	0.07964821
197	0xbd508365	-0.050906558
198	0xbbd80700	-0.0065926313
199	0x3e06ae8b	0.1315252
200	0x3cfa6698	0.030566499
201	0xbc2c4bd0	-0.010516122
202	0xbcbcb980	-0.023037672
203	0xb9b5c000	-0.0003466606
204	0xbdd08a0b	-0.101825796
205	0xbce4d2ac	-0.027932487
206	0x3dce6816	0.100784466
207	0xbd773f84	-0.060363308
208	0xbd043d2a	-0.032284893
209	0x3d624928	0.05524555
210	0x3d460ddc	0.04835306
211	0xbd81295c	-0.06306717
212	0xbd983af0	-0.074331164
213	0xbb66d1c0	-0.0035220236
214	0x3dc15e46	0.09441809
215	0xbd8f06e9	-0.0698374
216	0xbe00273f	-0.12514971
217	0xbe0b40c7	-0.1359893
218	0x3d5e8810	0.054328978
219	0x3be090e0	0.006853208
220	0xbddd021e	-0.107914194
221	0xbdc52a2b	-0.096271835
222	0xbd7889d4	-0.06067832
223	0x3d8c31b0	0.06845415
224	0xbe024a37	-0.12723623
225	0x3c0b2860	0.008493513
226	0xbce931ec	-0.028466187
227	0xbc8bf880	-0.017086267
228	0xbe0247aa	-0.1272265
229	0x3cbd6e58	0.023123905
230	0x3d822996	0.06355588
231	0xbde77db0	-0.1130327
232	0xbb11e740	-0.002226308
233	0xbd943b0a	-0.07237823
234	0x3cdd1d30	0.026991457
235	0xbcd303f4	-0.025758721
236	0xbddb95c1	-0.10721923
237	0x3d020ff8	0.03175351
238	0xbda161c0	-0.078799725
239	0xbb8f63c0	-0.004375905
240	0xbdfa53d6	-0.12223022
241	0x3da9f9bc	0.08299586
242	0xbde7607b	-0.11297699
243	0x3de1acd2	0.11019291
244	0xbca87f48	-0.020568505
245	0xbd046796	-0.03232535
246	0x3c6e0080	0.014526486
247	0xbe1037b0	-0.14083743
248	0x3a9ebc80	0.0012110621
249	0x3d0f890c	0.035042807
250	0x3c98137a	0.018563975
251	0x3dd1b372	0.102393046
252	0x3bedcd5d	0.007257147
253	0x3bd68b63	0.006547378
254	0xbced2a2c	-0.028950773
255	0x3cd9d94b	0.026592871

layers.2.bias f4 [50]
0	0xbd7470d9	-0.059677932
1	0x3e064e11	0.13115717
2	0x3e05d9e1	0.13071395
3	0xbdf45ff8	-0.11932367
4	0x3db7577a	0.08952232
5	0xbd01a38e	-0.03165012
6	0xbd72f472	-0.059315152
7	0xbd5e3a7d	-0.054254998
8	0xbd8d798e	-0.0690795
9	0x3dd2a368	0.102850735
10	0xbdc3f2b7	-0.095677786
11	0xbdc441d6	-0.0958287
12	0xbdb46b75	-0.08809558
13	0xbd526508	-0.051365882
14	0x3df80d2a	0.12111886
15	0x3dd3766e	0.10325323
16	0x3d6f8856	0.05847963
17	0xbc9e362e	-0.019312944
18	0x3cf0740f	0.029352216
19	0x3d4f3f2f	0.050597366
20	0x3d49c3e9	0.0492591
21	0xbd78613c	-0.060639605
22	0xbaa00102	-0.0012207332
23	0xbddb595a	-0.10710402
24	0x3cf84201	0.03030491
25	0x3d791119	0.06080732
26	0x3e13cf85	0.14434631
27	0xbc51ab10	-0.012797132
28	0x3cb48b2e	0.022039022
29	0xbb1bae56	-0.0023755035
30	0x3d909ef1	0.07061566
31	0xbd5b6cbd	-0.053570498
32	0x3ded703f	0.11593675
33	0xbc53d715	-0.0129296975
34	0x3dcf27fd	0.10115049
35	0xbccff8f9	-0.025387274
36	0x3d89bbb6	0.06725256
37	0xbe0f5814	-0.13998443
38	0xbd46818f	-0.0484634
39	0x3d0bb6b1	0.034109775
40	0xbdee4291	-0.1163379
41	0x3cf08595	0.029360572
42	0x3dfba653	0.12287583
43	0x3e0e0941	0.13870718
44	0x3d8aeaa1	0.06783033
45	0xbd76bc2d	-0.060238052
46	0x3da06caa	0.07833226
47	0x3d296009	0.041351352
48	0x3d476249	0.048677716
49	0xbdb91a97	-0.09038275

layers.3.weight f4 [50, 50]
0	0xbdde0800	-0.1084137
1	0xbd9bb0b5	-0.076020636
2	0xbde5b8c2	-0.112168804
3	0x3dae65a5	0.08515481
4	0xbdbfd668	-0.093670666
5	0xbe0e104d	-0.13873406
6	0x3e0123cf	0.12611316
7	0x3e07ef5f	0.13274907
8	0xbe136de5	-0.1439739
9	0x3df9f2d9	0.12204523
10	0x3d32abd0	0.043620884
11	0x3d887b8b	0.06664189
12	0x3e08fc27	0.13377438
13	0xbd276279	-0.040865395
14	0xbe14972b	-0.14510791
15	0xbd88e790	-0.06684792
16	0x3d35c2e5	0.04437532
17	0xbd8f41e7	-0.06994992
18	0x3db84f95	0.08999554
19	0xbe040fff	-0.12896727
20	0x3da4c2c1	0.08044959
21	0xbd3e396c	-0.04644148
22	0xbb815ced	-0.003947845
23	0xbd0c7aa8	-0.03429666
24	0xbdc62a51	-0.0967604
25	0xbca0b2b4	-0.019616462
26	0x3dbc0e7b	0.091824494
27	0xbc9507f4	-0.018192269
28	0xbd3fc331	-0.04681701
29	0x3bd2155a	0.0064112367
30	0xbde84d14	-0.113428265
31	0xbdfe1c63	-0.12407758
32	0x3dd4dab2	0.10393275
33	0x3d8c6b4c	0.06856403
34	0xbdc57b6a	-0.0964268
35	0xbde6b459	-0.11264867
36	0x3d07b6ac	0.033133194
37	0x3cd80bb0	0.02637276
38	0xbde02d54	-0.10946146
39	0x3dab752e	0.083719596
40	0xbd832e1c	-0.06405279
41	0xbd8275ef	-0.0637015
42	0xbda0f2cc	-0.0785881
43	0xbd93fac1	-0.07225562
44	0xbd809203	-0.062778495
45	0xbd9b4a84	-0.07582572
46	0x3dbc0aee	0.09181772
47	0xbd120ac1	-0.035654787
48	0x3d2651fa	0.040605523
49	0x3d544b43	0.051829588
50	0xbc91ac60	-0.01778239
51	0xbc2793db	-0.010228123
52	0x3d5aa2dc	0.05337797
53	0x3e2b9357	0.16755424
54	0x3d185360	0.037188888
55	0x3d93ad44	0.07210782
56	0xbd6d9589	-0.058003936
57	0x3da2603a	0.0792851
58	0x3dfc92a4	0.12332657
59	0xbd81630b	-0.06317719
60	0x3d2551ac	0.04036109
61	0xbe1fb170	-0.15595031
62	0x3d6c8cfc	0.05775164
63	0x3dae7647	0.08518653
64	0xbe2ed2fc	-0.17072672
65	0x3ded23ed	0.11579118
66	0x3da1a2fc	0.07892415
67	0xbd85bfcf	-0.06530725
68	0xbcf19a04	-0.029492386
69	0xbda23450	-0.07920134
70	0xbd0f16f8	-0.034934014
71	0xbcb37cf0	-0.02191016
72	0xbcf77708	-0.030208126
73	0x3e080a0f	0.13285087
74	0xbe160212	-0.14649227
75	0xbd447659	-0.047964428
76	0xbd939076	-0.07205288
77	0x3c50a560	0.012734741
78	0xbe19b674	-0.15011007
79	0x3bdfc017	0.006828319
80	0xbc20256f	-0.00977455
81	0x3d63a59d	0.055577863
82	0xbe0a9155	-0.13532002
83	0x3d912d82	0.07088758
84	0xbb8b887b	-0.004258213
85	0xbc15f51b	-0.009152676
86	0xbd8bd8f8	-0.06828493
87	0x3ddcb138	0.10775989
88	0xbd9f3c70	-0.077751994
89	0x3d757bb7	0.059932437
90	0x3d93e236	0.07220881
91	0x3b3c4fd8	0.0028734114
92	0x3e39d66f	0.18148206
93	0x3e24cbf1	0.16093422
94	0xbdb7f6cb	-0.08982619
95	0x3e243d32	0.16038969
96	0x3de5590b	0.11198624
97	0xbd801966	-0.06254844
98	0xbd896cd5	-0.06710211
99	0x3df2ea8d	0.11861143
100	0xbe0f5a3a	-0.13999262
101	0xbcd575b4	-0.026057102
102	0x3dc06bc8	0.09395558
103	0x3da597be	0.08085583
104	0xbbf2bda0	-0.007407859
105	0xbc8eb8fc	-0.017422192
106	0x3dfbc00e	0.12292491
107	0xbd63c0a2	-0.05560363
108	0xbc735760	-0.014852375
109	0xbd8e6111	-0.06952108
110	0xbde6f311	-0.1127683
111	0xbd0157ec	-0.03157799
112	0xbe0eab8d	-0.13932629
113	0x3d318f85	0.04334976
114	0xbe15ad4b	-0.14616887
115	0xbde3c26e	-0.11121069
116	0xbdb37a04	-0.08763507
117	0x3d8fec77	0.07027524
118	0x3daf5ef2	0.08563031
119	0xbdd82474	-0.10553828
120	0x3d411bbc	0.04714559
121	0x3cb017f0	0.02149579
122	0x3dd2553b	0.10270163
123	0x3d40696c	0.046975538
124	0x3d8e936b	0.069617115
125	0xbe181dc2	-0.14855102
126	0xbd582902	-0.052773483
127	0x3e0f9bef	0.14024328
128	0xbda76efc	-0.081754655
129	0xbd9f209a	-0.0776989
130	0x3dd936d4	0.10606161
131	0x3db4424f	0.0880171
132	0x3d641c63	0.055691134
133	0xbdbda40c	-0.09259805
134	0x3de8f224	0.1137431
135	0xbdecb9df	-0.115588896
136	0xbdc925cb	-0.098216616
137	0x3de54bee	0.11196123
138	0xbe0e6f56	-0.13909659
139	0xbacf89bb	-0.0015833894
140	0xbdbe594b	-0.09294375
141	0xbd03b87c	-0.03215836
142	0x3c443205	0.011974816
143	0xbd9a7134	-0.07541123
144	0x3dc5f0aa	0.09665044
145	0x3d7f26bd	0.062292803
146	0xbccc85ba	-0.02496611
147	0xbe00f44a	-0.12593189
148	0x3ce7b9a9	0.028286772
149	0xbb549880	-0.003243953
150	0x3e0f9fed	0.1402585
151	0xbd94d4d8	-0.07267159
152	0x3df7bbf1	0.12096394
153	0x3e21f337	0.15815435
154	0x3dc24b18	0.09486979
155	0x3d41d219	0.047319505
156	0x3e1d1f92	0.15344074
157	0xbd266414	-0.040622786
158	0x3dbff2e7	0.09372502
159	0xbd2ea2ec	-0.042635843
160	0xb969a400	-0.00022281706
161	0xbccda406	-0.025102627
162	0x3d6d13c4	0.057880178
163	0xbda7ebb3	-0.08199253
164	0x3de0f04f	0.10983335
165	0xbc41e1cf	-0.011833622
166	0xbd73ac9b	-0.05949078
167	0x3d24c9c5	0.040231485
168	0xbd817bb8	-0.063224256
169	0x3d135e0c	0.035978362
170	0x3d81502a	0.06314118
171	0x3d25b5e8	0.040456682
172	0x3dbd4115	0.09240929
173	0x3e0ecea9	0.13946022
174	0x3d9f3866	0.07774429
175	0x3e20f2b3	0.15717582
176	0xbd65b882	-0.056084163
177	0x3e02cbfd	0.12773128
178	0xbd0ab784	-0.03386642
179	0xbdd9f630	-0.1064266
180	0x3d8a92ea	0.06766303
181	0x3de8b5f1	0.113628276
182	0x3e10c948	0.14139283
183	0xbdde55fb	-0.10856243
184	0x3de47afc	0.1115627
185	0xbdaaa22e	-0.083317146
186	0x3c216339	0.009850317
187	0xbd73274e	-0.059363656
188	0xbd4bd0c8	-0.049759656
189	0x3cf7fc57	0.030271692
190	0xbd8ec95b	-0.06971999
191	0xbb04fdef	-0.0020292958
192	0x3e0394da	0.12849751
193	0x3df3d4bd	0.11905811
194	0xbd9bf266	-0.07614593
195	0x3b80d6c4	0.003931852
196	0x3db15172	0.086581126
197	0x3dc74245	0.09729437
198	0xbd8b72ca	-0.06809004
199	0xbd25a77a	-0.04044292
200	0x3d2f722a	0.042833485
201	0xbd127d70	-0.035764158
202	0x3df77cac	0.12084326
203	0x3db428af	0.08796822
204	0x3dc04330	0.09387815
205	0x3c8f7763	0.017512983
206	0x3e481599	0.19539489
207	0xbd31d927	-0.043419983
208	0x3da1a410	0.078926206
209	0xbd2c9fb6	-0.0421445
210	0xbd3a3534	-0.045460895
211	0x3cdd3ca3	0.027006453
212	0x3ccedff0	0.025253266
213	0x3e1c8232	0.1528404
214	0x3d9434a0	0.072366
215	0x3dc9e1e3	0.098575376
216	0xbd848c0a	-0.06472023
217	0x3dcee34f	0.101019494
218	0x3e066290	0.13123536
219	0x3a3f3bb0	0.0007294966
220	0xbc60324d	-0.013683868
221	0x3d6a933c	0.05726932
222	0x3df0abda	0.11751528
223	0xbe093058	-0.13397348
224	0x3db2546d	0.08707509
225	0x3db83bf4	0.0899581
226	0x3df8a40c	0.121406645
227	0x3ddf9a12	0.109180585
228	0x3cce673f	0.025195716
229	0xbde2d142	-0.11075069
230	0x3dfed27c	0.124424905
231	0x3d4531af	0.048143085
232	0x3d8d69a1	0.06904913
233	0x3dad3039	0.08456463
234	0x3dba5b7e	0.09099482
235	0xbdc4076a	-0.095717266
236	0xbd6e16b0	-0.058127105
237	0x3c471950	0.012152031
238	0x3aea0a8d	0.0017855928
239	0x3df606ff	0.12013053
240	0x3e066255	0.13123448
241	0xbb8c9d3a	-0.004291204
242	0xbd733058	-0.059372276
243	0x3d98c236	0.07458918
244	0xbd1f026b	-0.038820665
245	0x3dbf28c6	0.09333949
246	0xbd41f067	-0.047348406
247	0xbd323c66	-0.04351463
248	0x3d756ffe	0.059921257
249	0x3d82bea0	0.06384015
250	0xbdb4012f	-0.08789288
251	0x3dc100fc	0.09424016
252	0xbd2a0e80	-0.041517735
253	0x3d3c4bf9	0.04597089
254	0xbdc248b1	-0.09486521
255	0xbe17002b	-0.14746158

layers.3.bias f4 [50]
0	0x3d80bba9	0.06285793
1	0x3d6af142	0.057358988
2	0xbd747f6c	-0.05969183
3	0x3ca2f803	0.019893652
4	0xbda6ceb2	-0.08144893
5	0xbdc07e09	-0.09399039
6	0xbd5248ee	-0.051339082
7	0xbd1f2fc1	-0.0388639
8	0xbe0d92f2	-0.13825586
9	0xbe109355	-0.14118703
10	0xbcd892ce	-0.02643719
11	0xbca032cb	-0.01955547
12	0xbe0b600a	-0.13610855
13	0xbdc29782	-0.09501554
14	0x3e0d6010	0.13806176
15	0xbd5d064b	-0.05396108
16	0xbd2fe79a	-0.04294548
17	0xbcdcb64b	-0.026942393
18	0xbd198cef	-0.03748792
19	0xbda86251	-0.08221877
20	0x3d4467c9	0.04795054
21	0x3c9d35e8	0.019190744
22	0xbdd643e1	-0.104621656
23	0xbcf90e3c	-0.030402295
24	0xbddd7c31	-0.10814703
25	0xbceb90d5	-0.028755585
26	0xbcfc904c	-0.030830525
27	0x3dd123c1	0.10211898
28	0xbde32f4e	-0.11093007
29	0xbd57e3f7	-0.05270764
30	0xbddec8ec	-0.108781666
31	0xbcac4a85	-0.021031627
32	0x3c6fa985	0.014627819
33	0xbdf15000	-0.11782837
34	0x3dc43e92	0.09582247
35	0x3d82ade0	0.0638082
36	0x3e07e058	0.13269174
37	0x3dffb94f	0.12486517
38	0xbd833e34	-0.06408349
39	0xbd6912e2	-0.056902774
40	0xbd8106f5	-0.06300155
41	0xbde017b3	-0.1094202
42	0x3d136dfd	0.035993565
43	0xbc8822d0	-0.016618162
44	0x3d28043c	0.041019663
45	0x3e021e15	0.12706788
46	0xbdb46e05	-0.08810047
47	0x3d59cdf9	0.053174946
48	0xbd28d641	-0.041219953
49	0xbdd0d48d	-0.10196791

layers.4.weight f4 [1, 50]
0	0xbd3bcff2	-0.04585261
1	0x3d7baace	0.06144219
2	0xbd8df9fd	-0.06932447
3	0x3dfdbb89	0.12389285
4	0x3df44ce8	0.11928731
5	0xbb210dc6	-0.002457486
6	0xbd8be737	-0.0683121
7	0x3e079fc4	0.1324454
8	0xbd3a14a4	-0.04542984
9	0xbd05137c	-0.032489285
10	0x3e1e94f4	0.15486509
11	0xbe078ff4	-0.13238508
12	0xbd4b7cc4	-0.049679533
13	0x3e3cd66b	0.18441169
14	0x3de07f95	0.10961834
15	0x3e4dcf2d	0.20098563
16	0xbc802088	-0.015640512
17	0x3d984ede	0.07436918
18	0xbcc07470	-0.023493022
19	0xbdd3491f	-0.10316681
20	0xbd4903c0	-0.049075842
21	0xbd2391bc	-0.039933905
22	0xbdba3020	-0.0909121
23	0x3e1b34b8	0.1515683
24	0xbdf20b9b	-0.1181862
25	0x3db8bda0	0.09020543
26	0x3dfb399a	0.12266846
27	0x3e1647b6	0.14675793
28	0xbd6af388	-0.057361156
29	0xbddeb3b5	-0.1087412
30	0x3d4c333c	0.04985355
31	0xbe36c0cc	-0.17846984
32	0xbd6c79b1	-0.05773324
33	0x3d8b8b93	0.06813731
34	0x3dcbf2c7	0.099584155
35	0xbd90f535	-0.070780195
36	0xbd7406ad	-0.05957668
37	0x3d10c3e6	0.035343073
38	0x3e3ed0af	0.18634294
39	0x3b7858d1	0.0037894736
40	0xbdc49169	-0.09598047
41	0x3d93b2ea	0.072118595
42	0xbdc64b28	-0.09682304
43	0x3d5c5ca4	0.053799286
44	0xbdf4785a	-0.11937018
45	0x3dfc8a69	0.12331087
46	0x3e02ff75	0.12792762
47	0xbcfd5479	-0.030924069
48	0xbb94137b	-0.004518924
49	0x3e079801	0.13241579
